trained_model.pt (torch_old, 271448 bytes, 6 tensors)

fc1.weight f4 [256, 4]
0	0xbe1805c1	-0.14845945
1	0xbcad2250	-0.021134526
2	0xbf067ec0	-0.52537155
3	0xbecc8ee0	-0.39952755
4	0xbd442897	-0.047890272
5	0xbed73bd8	-0.42037845
6	0xbd8b9a01	-0.06816483
7	0x3e1e4931	0.15457608
8	0x3f0b46c8	0.5440488
9	0xbee039d5	-0.43794122
10	0x3e63db60	0.22251654
11	0xbdee6f9a	-0.1164238
12	0xbeff0617	-0.49809334
13	0x3f031594	0.512048
14	0xbdde23f9	-0.10846705
15	0x3e8830dd	0.2659978
16	0x3ec3f916	0.38275975
17	0x3eea196c	0.4572252
18	0x3edfe20a	0.43727142
19	0x3e39feb3	0.18163566
20	0xbebc40f1	-0.36768296
21	0x3df6b94e	0.12047063
22	0xbf4901c6	-0.7851833
23	0xbe9eb1b9	-0.30994967
24	0x3d60d1cd	0.05488758
25	0x3e0ef4c2	0.13960555
26	0x3f515679	0.8177257
27	0xbdd73821	-0.105087526
28	0x3cd4553a	0.025919545
29	0xbed23525	-0.4105617
30	0xbe89fb03	-0.2694932
31	0xbdf3fec9	-0.11913831
32	0x3eea59b5	0.45771566
33	0x3f0602af	0.52347845
34	0x3f701131	0.9377623
35	0x3ebd41d0	0.36964273
36	0x3f1d511f	0.61451906
37	0x3e243ba7	0.1603838
38	0x3f12b4b8	0.57307005
39	0x3e30c3af	0.17262147
40	0x3ec41613	0.3829809
41	0xbf00fc5d	-0.50385076
42	0xbdabd2be	-0.08389805
43	0x3daa8f04	0.08328059
44	0x3d3c54d9	0.045979355
45	0xbec513d8	-0.38491702
46	0x3f493e72	0.7861091
47	0xbc0919a9	-0.008367934
48	0xbf1a3022	-0.60229695
49	0x3ebf6f42	0.3738957
50	0xbf318e59	-0.6935783
51	0xbd170eae	-0.036879234
52	0x3e5564ca	0.20839229
53	0xbecba9f6	-0.39778107
54	0x3f646d0a	0.8922888
55	0x3e6f8b79	0.23393048
56	0x3f30aaf4	0.69010854
57	0xbe0ee0ca	-0.13952938
58	0xbda5832d	-0.080816604
59	0xbea80781	-0.32818225
60	0xbdaadda3	-0.08343055
61	0xbeb141ae	-0.34620422
62	0xbf268920	-0.65052986
63	0x3e95ac2f	0.29232928
64	0xbe463fda	-0.19360295
65	0xbf206ae8	-0.62663126
66	0xbedf7cd4	-0.43649924
67	0xbed768db	-0.42072186
68	0xbe8ac325	-0.27102008
69	0xbdef7020	-0.11691308
70	0x3e9b768e	0.30363888
71	0x3ec1fa57	0.37886307
72	0xbeb14c4d	-0.34628525
73	0x3e564f85	0.20928772
74	0xbea147ef	-0.31500193
75	0xbe41ce92	-0.18926457
76	0x3f23d490	0.6399622
77	0x3e63645c	0.22206253
78	0x3f717e9b	0.9433381
79	0x3e2041c1	0.15650083
80	0x3e8a6704	0.2703172
81	0xbe77a52b	-0.241841
82	0xbe26f8e5	-0.16305883
83	0x3c61c892	0.01378073
84	0xbddf2e2c	-0.108974785
85	0x3ec34fdc	0.38146865
86	0xbf6b5c31	-0.9193755
87	0xbd52fbab	-0.05150954
88	0xbeb935f7	-0.36173984
89	0xbcb3456a	-0.021883685
90	0x3f1f7320	0.6228504
91	0x3ecffa0f	0.40620467
92	0xbc6fe3e8	-0.014641739
93	0x3ed14509	0.40872982
94	0x3ee28d7a	0.44248563
95	0xbed93cd9	-0.42429236
96	0x3e50519b	0.2034363
97	0xbe6ad109	-0.22931303
98	0xbd7f2b46	-0.06229713
99	0x3ee094ec	0.43863618
100	0x3e621706	0.22079095
101	0x3e86e9d6	0.26350278
102	0xbf3e80cc	-0.7441528
103	0xbe47d69d	-0.19515462
104	0x3e46ac9d	0.19401784
105	0x3eceff38	0.4042909
106	0x3f125448	0.57159853
107	0xbe25e54a	-0.16200748
108	0xbe24e92d	-0.16104575
109	0xbe768a3c	-0.2407617
110	0x3ee7a855	0.45245615
111	0x3dc26e73	0.09493723
112	0x3f759a8d	0.9593895
113	0xbed540a0	-0.41650867
114	0xbf3c216d	-0.73488504
115	0xbeade105	-0.3396074
116	0xbdebb63d	-0.115093686
117	0x3e9d2d05	0.3069841
118	0x3f708df5	0.9396661
119	0x3d781b00	0.060572624
120	0xbdd4c3d1	-0.103889115
121	0x3ea5e7e3	0.32403478
122	0x3f093f2f	0.53612036
123	0xbd12d32b	-0.035845917
124	0x3f69e926	0.9137138
125	0x3f150570	0.5821142
126	0x3df7a857	0.12092655
127	0x3e8d8e66	0.27647704
128	0xbe83f491	-0.25772527
129	0x3e93ad35	0.28843084
130	0xbef767d2	-0.48321396
131	0xbcd3720e	-0.025811221
132	0xbe1048ad	-0.14090224
133	0x3f30afc7	0.69018215
134	0x3ea508ec	0.3223337
135	0x3eef0b36	0.4668824
136	0x3e5ac25e	0.21363208
137	0xbcc7ccbb	-0.024389615
138	0x3edec054	0.4350611
139	0x3eadad6c	0.33921373
140	0xbef77b5d	-0.48336306
141	0x3ecda835	0.40167394
142	0xbf53b46b	-0.8269717
143	0xbe119aca	-0.14219204
144	0x3e0d0f25	0.13775308
145	0xbdb91906	-0.09037976
146	0x3f9a51e8	1.2056246
147	0x3edee99c	0.43537605
148	0xbe930c27	-0.2872021
149	0xbdc8d284	-0.09805778
150	0x3f5ca4a9	0.8618875
151	0x3dc218e3	0.09477403
152	0xbf28a0ea	-0.65870535
153	0x3df73f4e	0.12072621
154	0x3ed0e451	0.40799192
155	0x3de52226	0.11188154
156	0xbee97db4	-0.45603716
157	0x3e1a9fab	0.15099971
158	0x3f5cbcc9	0.86225563
159	0x3e4350ae	0.19073746
160	0x3e583be1	0.21116592
161	0x3d48563c	0.048910365
162	0x3ee6c67b	0.45073304
163	0xbedf3bf9	-0.43600443
164	0x3f49bf08	0.78807116
165	0xbd41b93c	-0.047295794
166	0xbf490fe7	-0.7853989
167	0xbe261770	-0.16219878
168	0xbf1f51c7	-0.6223416
169	0xbf043440	-0.5164223
170	0xbf2a5b1c	-0.6654527
171	0xbeb59978	-0.3546865
172	0xbf15d90f	-0.5853433
173	0xbf024adc	-0.50895476
174	0xbea0c4de	-0.31400198
175	0xbeadfeca	-0.3398345
176	0xbf26fecf	-0.6523256
177	0xbeb13bbc	-0.34615886
178	0xbf1a8679	-0.6036144
179	0xbe8644eb	-0.26224455
180	0xbef192ec	-0.47182405
181	0x3e4bdcd9	0.19908465
182	0x3f7b41f7	0.9814753
183	0x3e3c3279	0.18378629
184	0xbe391d53	-0.18077593
185	0x3dfbde86	0.12298302
186	0xbf8b403f	-1.0878981
187	0x3e5156c9	0.20443262
188	0x3e3e9dcf	0.18614887
189	0xbe2f88ba	-0.17142001
190	0xbfb2212b	-1.3916372
191	0xbe7fa63a	-0.24965754
192	0xbefc484f	-0.49273917
193	0x3f23cccd	0.63984376
194	0xbe050c88	-0.12993062
195	0x3ee08a6b	0.43855605
196	0xbf55d1b5	-0.8352311
197	0xbc6a7370	-0.014309749
198	0xbf1af768	-0.6053376
199	0x3e3f6995	0.1869262
200	0xbee465a8	-0.44608808
201	0x3e83839a	0.25686342
202	0xbe3598ca	-0.17734066
203	0xbe261877	-0.1622027
204	0xbd923bea	-0.07140334
205	0xbeb3c2b5	-0.35109487
206	0xbf11ddf2	-0.56979287
207	0xbea85741	-0.3287907
208	0xbf227a93	-0.63468283
209	0x3cda3115	0.026634732
210	0xbd0342d8	-0.03204617
211	0x3e4c2728	0.19936812
212	0xbe8fc455	-0.28079477
213	0x3c61f3c0	0.013791025
214	0x3e2a3f27	0.16625653
215	0xbec3f77c	-0.38274753
216	0x3d5bb8ce	0.05364304
217	0x3e9789e9	0.29597405
218	0x3eae4745	0.3403875
219	0xbef92f43	-0.4866887
220	0xbdc2ba58	-0.095081985
221	0x3eb7238e	0.35769314
222	0xbf249ba9	-0.6430002
223	0xbdbc91a3	-0.092074655
224	0xbe51f250	-0.20502591
225	0x3e80b742	0.25139815
226	0x3f88b177	1.0679158
227	0xbe298e75	-0.1655825
228	0xbea74c7a	-0.32675534
229	0x3e8b547e	0.272129
230	0x3f59ad78	0.8503032
231	0x3eac1805	0.33612075
232	0x3f578ddb	0.8420083
233	0xbeb21a14	-0.3478552
234	0xbe6548b1	-0.22391011
235	0xbe833493	-0.25626048
236	0xbf257b5a	-0.64641345
237	0x3e9f309d	0.31091776
238	0xbe09516b	-0.13409965
239	0x3e9fdf1b	0.31224903
240	0x3dcca7de	0.099929556
241	0xbe1acc16	-0.15116915
242	0x3e7c709a	0.24652329
243	0xbed75367	-0.42055818
244	0x3e4f157b	0.20223038
245	0x3e878df1	0.2647548
246	0xbf512d22	-0.8170949
247	0xbcf14b24	-0.029454775
248	0x3ecdf464	0.40225518
249	0xbf1ee2f0	-0.6206503
250	0xbfa7af3c	-1.3100352
251	0xbed94b10	-0.4244008
252	0xbe8dd9f1	-0.2770534
253	0xbf158d0d	-0.5841835
254	0xbf10f16d	-0.56618387
255	0xbebaedac	-0.36509454

fc1.bias f4 [256]
0	0xbe86ceae	-0.2632956
1	0xbdb813d6	-0.089881584
2	0x3f3d11bf	0.73855203
3	0x3f6fde2b	0.93698376
4	0xbf058503	-0.52156085
5	0xbe98cc72	-0.2984348
6	0x3f003641	0.50082785
7	0x3f36325e	0.71170604
8	0xbd41a659	-0.047277782
9	0x3f20c11d	0.6279467
10	0x3ec7c115	0.39014497
11	0xbeb7f403	-0.35928354
12	0x3db24e8e	0.08706389
13	0xbe4e7c91	-0.20164706
14	0xbf085a11	-0.5326243
15	0x3f480254	0.7812855
16	0x3d024b55	0.031810123
17	0xbeaff3ca	-0.34365684
18	0x3f4250a6	0.7590431
19	0xbd232a49	-0.03983525
20	0x3f22454a	0.63386977
21	0xbeb41572	-0.3517261
22	0xbecc75fd	-0.39933768
23	0xbedde89b	-0.43341526
24	0x3f271cd8	0.6527839
25	0xbe9fce81	-0.31212237
26	0xbe292030	-0.16516185
27	0xbec966de	-0.39336294
28	0x3f123cd8	0.5712409
29	0x3ee8c11e	0.45459837
30	0x3e9b7aa1	0.30366996
31	0xbe0e35a2	-0.13887647
32	0xbed1ed7c	-0.410015
33	0xbd56b74d	-0.052420903
34	0x3f194a6e	0.59879196
35	0x3eb42624	0.3518535
36	0x3d664da5	0.05622639
37	0xbe2f4705	-0.17116936
38	0x3d7a7c24	0.061153546
39	0x3f504478	0.81354475
40	0x3e512fb0	0.20428348
41	0xbe1bc0ca	-0.15210262
42	0xbbf122e7	-0.007358897
43	0xbe5dd3bf	-0.21662806
44	0x3d211834	0.039329723
45	0x3f0ad84f	0.5423631
46	0x3eb1cb8e	0.34725612
47	0xbe742cd1	-0.23845221
48	0xbe2bc591	-0.16774584
49	0x3d4a4f4b	0.049392026
50	0xbf12c703	-0.5733492
51	0x3f1622b7	0.5864672
52	0x3f0ce847	0.5504193
53	0x3e4609a8	0.19339621
54	0x3f42a530	0.76033306
55	0xbe829358	-0.2550304
56	0x3d8bcb4c	0.06825885
57	0x3ddad1a5	0.10684518
58	0x3eece577	0.46268818
59	0x3e563e2d	0.20922156
60	0x3ee0f37e	0.4393577
61	0xbe8c2313	-0.2737051
62	0xbe5eb973	-0.21750431
63	0x3f07875c	0.52940917
64	0x3f0dce59	0.55392987
65	0xbe081a01	-0.1329117
66	0xbd57c61c	-0.052679166
67	0xbe7e8b9e	-0.24857947
68	0x3ee4e6d4	0.44707358
69	0xbe2bbb0a	-0.16770568
70	0xbeda2c27	-0.4261181
71	0x3f0535eb	0.520354
72	0x3eb461bf	0.35230824
73	0x3ef3afbf	0.4759502
74	0xbcd88fd3	-0.026435768
75	0x3eacf9ad	0.33784238
76	0xbdff92e5	-0.1247919
77	0x3ec84a92	0.39119393
78	0x3f76d21e	0.96414363
79	0x3f567e69	0.83786637
80	0xbf0b1bd3	-0.5433933
81	0xbcf5dca7	-0.030012442
82	0xbe954d99	-0.29160765
83	0x3f069ef1	0.52586275
84	0xbd605d22	-0.05477632
85	0xbc97a4d0	-0.018511206
86	0xbeeb2872	-0.45929295
87	0x3efe95f4	0.4972378
88	0x3f21f394	0.63262296
89	0x3f635f8f	0.88817686
90	0x3f389187	0.7209706
91	0x3e45e69f	0.19326256
92	0xbdae1fb8	-0.085021436
93	0x3f181db6	0.59420335
94	0xbeee7e46	-0.46580714
95	0xbec96498	-0.3933456
96	0x3f48f532	0.7849914
97	0x3eaf57ba	0.34246618
98	0xbedbd66c	-0.42937028
99	0xbefa5374	-0.48891795
100	0xbe811c84	-0.25217068
101	0x3e60e9f0	0.2196424
102	0xbc803b75	-0.015653351
103	0x3ee89d9c	0.45432746
104	0xbdd20652	-0.10255112
105	0xbe510d97	-0.2041534
106	0x3ed36745	0.41289726
107	0x3f099afb	0.53752106
108	0xbea180a7	-0.31543466
109	0xbec025b7	-0.37528774
110	0x3ed6d65d	0.4196042
111	0x3f095da2	0.536585
112	0x3f26c323	0.65141505
113	0x3f287af0	0.6581259
114	0x3f2dc3b1	0.67876726
115	0x3ef46ebf	0.47740743
116	0xbe932435	-0.2873856
117	0xbea361a9	-0.31910446
118	0xbecbd386	-0.39809817
119	0xbeab8c92	-0.33505684
120	0x3f1eea07	0.6207585
121	0x3f18e8c6	0.59730184
122	0x3ed8c2a3	0.42335996
123	0xbdb0b46b	-0.08628162
124	0xbe8db40a	-0.2767642
125	0xbd785c57	-0.060634937
126	0x3ed2462f	0.4106917
127	0xbdf335db	-0.118755065
128	0xbdf760e2	-0.12079026
129	0xbd83ae84	-0.064297706
130	0x3f28f2a3	0.65995234
131	0xbdd6ae45	-0.10482458
132	0xbedd6645	-0.43242088
133	0xbd90ce55	-0.07070605
134	0xbe409bfd	-0.18809505
135	0xbea1f57d	-0.31632605
136	0x3d10cf9e	0.03535425
137	0x3f041104	0.51588464
138	0xbe0d26c6	-0.13784322
139	0x3f0cb854	0.5496876
140	0xbeff3b83	-0.4985009
141	0xbd47dbb6	-0.048793517
142	0xbeab4d01	-0.33457187
143	0xbb9492c5	-0.004534098
144	0x3e827dd8	0.25486636
145	0x3f3ca5cf	0.73690504
146	0x3d5122c2	0.05105854
147	0x3e9813f6	0.2970273
148	0x3f026c78	0.5094676
149	0xbe1a5ad9	-0.15073718
150	0x3f2bde8a	0.6713644
151	0x3f134da7	0.57540363
152	0x3f0202aa	0.50785315
153	0x3e53fbed	0.20701571
154	0x3f1bf8d0	0.6092653
155	0x3f5f0566	0.8711761
156	0xba394dd7	-0.0007068789
157	0x3eedb13c	0.46424282
158	0x3d25b830	0.040458858
159	0xbeffc04c	-0.49951398
160	0xbe5571bc	-0.20844167
161	0xbe9d3379	-0.30703333
162	0xbe8df11a	-0.27723008
163	0xbd64a225	-0.055818696
164	0x3ae10ca5	0.0017169906
165	0xbee84a1f	-0.4536905
166	0x3ea93412	0.3304754
167	0xbec1cff1	-0.3785396
168	0x3e9c92cb	0.30580744
169	0xbe1ee188	-0.15515721
170	0x3f47ab21	0.77995497
171	0xbf137019	-0.5759292
172	0xbf19efb6	-0.60131395
173	0xbbff3764	-0.0077885855
174	0xbe2ade2e	-0.16686317
175	0x3f3136eb	0.69224423
176	0x3f2371c2	0.63845456
177	0xbf143e3f	-0.5790748
178	0x3f85c67c	1.0451198
179	0xbea3846c	-0.31936967
180	0xbe669b30	-0.22520137
181	0x3eaa3acc	0.33247983
182	0x3e7962a2	0.24354032
183	0xbd185fb0	-0.03720063
184	0x3f18c869	0.596808
185	0x3ee28f19	0.442498
186	0xbe51f4b7	-0.20503508
187	0xbcfbbd0e	-0.030729797
188	0xbde067f2	-0.10957326
189	0x3eea28d3	0.4573427
190	0x3f527308	0.82206774
191	0xbecb44ac	-0.3970083
192	0x3ece3c53	0.402804
193	0x3de62fa4	0.112395555
194	0x3ed6c05d	0.41943637
195	0xbe043f12	-0.12914684
196	0xbe17dd8b	-0.14830606
197	0xbf0afec0	-0.5429497
198	0x3f592bfa	0.8483273
199	0xbddb19c9	-0.106982775
200	0x3dabe252	0.083927765
201	0xbeae95db	-0.34098706
202	0x3f04a080	0.51807404
203	0xbe124601	-0.14284517
204	0x3f5cf11b	0.863054
205	0xbe562b5f	-0.20914982
206	0xbe3fc92a	-0.18729082
207	0x3f24cac2	0.64371884
208	0xbdc9fc7e	-0.09862612
209	0xbda46ca3	-0.08028533
210	0xbdf88c58	-0.121361434
211	0x3db4f7fe	0.08836363
212	0x3e09c39a	0.13453522
213	0x3f258391	0.6465388
214	0x3eadceba	0.33946782
215	0xbf039012	-0.5139171
216	0xbd2362cd	-0.039889146
217	0x3f2edc3b	0.68304795
218	0x3f4660fb	0.7749173
219	0x3f57904d	0.8420456
220	0xbba59918	-0.0050536506
221	0x3f0bcf81	0.546135
222	0x3efedd6a	0.497783
223	0xbd13d90c	-0.036095664
224	0x3f6ced58	0.9254966
225	0x3f026268	0.50931406
226	0xbd2a1518	-0.041524023
227	0xbd6e9550	-0.058247864
228	0x3eb8dd2f	0.3610625
229	0x3f2744a1	0.65339094
230	0x3f1da58c	0.6158073
231	0x3f136b72	0.57585824
232	0x3f170e0f	0.59005827
233	0x3eaabe0b	0.33348116
234	0xbd53bf46	-0.051696084
235	0xbe936c9b	-0.28793797
236	0xbe229ca2	-0.15880063
237	0x3e40488c	0.18777674
238	0x3f1ce1ec	0.6128223
239	0xbdd70301	-0.1049862
240	0xbd7c774d	-0.06163721
241	0xbe6c4efb	-0.23077004
242	0x3e73b3fd	0.23799129
243	0x3df70075	0.12060634
244	0x3f0ca0dc	0.5493295
245	0x3f3f3450	0.746892
246	0x3f2a3306	0.66484106
247	0xbe9dd6f9	-0.30828074
248	0x3d1fa138	0.03897211
249	0xbea5e399	-0.32400206
250	0xbe197217	-0.14984928
251	0x3f0ad44b	0.54230183
252	0x3f67a535	0.9048646
253	0x3ee57489	0.44815472
254	0xbe2e465d	-0.17019029
255	0xbd272a54	-0.04081185

fc2.weight f4 [256, 256]
0	0x3c662528	0.014046945
1	0xbc6bd1cf	-0.014393284
2	0xbd3c41ad	-0.04596107
3	0xbd47044a	-0.048588075
4	0x3b125240	0.0022326857
5	0x3c5d34b0	0.013501331
6	0xbd1c2c31	-0.03812808
7	0x3d01512c	0.031571552
8	0x3d40559c	0.046956643
9	0x3d361ba0	0.04445994
10	0xbd7943a0	-0.060855508
11	0xb900a5a4	-0.00012268737
12	0xbd64a347	-0.055819776
13	0x3d30abbe	0.043132536
14	0x3c3906b0	0.011293098
15	0xbc8dedf1	-0.017325373
16	0xbd2333f0	-0.039844453
17	0x3cd676ef	0.026179759
18	0x3d4db904	0.050225273
19	0xbb8733f0	-0.0041260645
20	0xbd04b4dc	-0.032399043
21	0xbc40b21c	-0.011761215
22	0x3d1dfe69	0.038572703
23	0xbc948582	-0.018130068
24	0xbd4debdf	-0.050273772
25	0xbc50277c	-0.012704726
26	0x3d466f7c	0.048446164
27	0xbdad62d1	-0.08466113
28	0xbd132c81	-0.035931114
29	0x3d44577d	0.047934998
30	0x3ba49ddc	0.005023701
31	0xbbf5cfd0	-0.00750158
32	0xbcabb254	-0.020959057
33	0xbd0e01aa	-0.034669556
34	0xbd07834a	-0.03308419
35	0xbccaaf66	-0.02474184
36	0xbd0d0b1f	-0.034434434
37	0x3cf532d6	0.029931467
38	0xbd02e3d5	-0.03195556
39	0xbb0fa4d6	-0.0021918318
40	0xbd623e13	-0.05523498
41	0xbbc4eff0	-0.006010048
42	0xbd7665a5	-0.06015553
43	0xbd51c52a	-0.05121342
44	0xbcbd89b6	-0.023136955
45	0xbc1aeef0	-0.009456381
46	0xbb067faf	-0.0020522883
47	0x3c12b430	0.008954093
48	0x3cb7adb1	0.02242169
49	0xbc601dc8	-0.013678975
50	0x3d63d3c2	0.05562187
51	0x3d718711	0.0589667
52	0xbd468483	-0.048466217
53	0xbd16096e	-0.036630087
54	0xbd7c15b2	-0.061544128
55	0x3d266de0	0.04063213
56	0x3d3a9a0b	0.045557063
57	0x3ce1c3b3	0.027559137
58	0x3caf07ec	0.021366082
59	0xbc9bc10c	-0.01901295
60	0xbbd67881	-0.006545127
61	0xbd60c6f1	-0.054877225
62	0x3c52ad4e	0.012858702
63	0x3d02f06a	0.031967558
64	0xbc574c35	-0.013140728
65	0x3d11b5d7	0.035573807
66	0xbd7956bd	-0.060873736
67	0x3d16d38a	0.036822833
68	0xbafd7cf4	-0.0019339607
69	0xbc9155b0	-0.017741054
70	0x3d6ec1ca	0.05829028
71	0xbcf46aa1	-0.029836
72	0x3cbe54fa	0.02323388
73	0xbd523bd7	-0.0513266
74	0x3d0683b1	0.032840434
75	0xbbb2e815	-0.0054597952
76	0x3c6092e8	0.0137069
77	0x3b25a27d	0.0025273853
78	0x3d6fc5ca	0.058538236
79	0xbd47f549	-0.048817907
80	0x3d5d2bf0	0.05399698
81	0x3c852e94	0.016257562
82	0x3c2030aa	0.009777227
83	0xbd0ed1d6	-0.034868084
84	0x3c57f16f	0.013180121
85	0xbd3db2d6	-0.04631313
86	0xbd6bb745	-0.057547826
87	0xbcb14eb7	-0.02164398
88	0xbc08ef1c	-0.008357789
89	0xbcc4953e	-0.023996945
90	0xbd236cfe	-0.039898865
91	0x3c88de40	0.01670754
92	0x3c6dc110	0.014511362
93	0xbc0b7651	-0.008512096
94	0x3c340820	0.010988265
95	0x3d3d89ea	0.046274103
96	0xbce4f94d	-0.027950907
97	0x3d3d55b4	0.04622431
98	0x3d60d040	0.054886103
99	0x3ca86309	0.020555036
100	0x3cedac9f	0.029012976
101	0xbd6473d8	-0.05577454
102	0xbc29f9cd	-0.010374499
103	0xbc9c22fe	-0.019059654
104	0x3d02d996	0.031945787
105	0x3d300f7b	0.042983513
106	0x3d2cd00e	0.042190604
107	0x3d27b603	0.040945064
108	0x3d00a45c	0.031406745
109	0xbcfc9f06	-0.030837547
110	0xbd3a375b	-0.045462947
111	0xbc6d2ed9	-0.014476501
112	0xbcf75058	-0.030189678
113	0xbb0d9cd0	-0.002160836
114	0x3d5245f9	0.051336262
115	0xbb36fff2	-0.0027923551
116	0x3d5eb17e	0.05436849
117	0x3d0b9b02	0.034083374
118	0x3d06453a	0.032780863
119	0xbade9eba	-0.001698456
120	0x3d1a9746	0.03774192
121	0xbd40aace	-0.047037892
122	0x3d69d479	0.057087395
123	0xbd79bd4e	-0.06097155
124	0x3c01c890	0.007921353
125	0x3d3ab3c9	0.045581613
126	0xbc81f226	-0.015862536
127	0xbd4e4c5e	-0.0503658
128	0xbcfdb0e4	-0.030968137
129	0xbd064f87	-0.032790687
130	0x3ca867d7	0.020557327
131	0xbd1a3e28	-0.037656933
132	0x3d266922	0.040627606
133	0xbc982204	-0.018570907
134	0xbc8042b1	-0.015656801
135	0xbd81687c	-0.06318757
136	0xbcc61b81	-0.024183037
137	0xbd65cdb8	-0.05610439
138	0x3c9200ec	0.017822705
139	0x3c0b6f80	0.00851047
140	0x3b8a2c40	0.004216701
141	0x3cb59e82	0.022170309
142	0xbd27bf38	-0.040953845
143	0xbd103d90	-0.03521496
144	0xbc92adef	-0.017905204
145	0xbce16952	-0.027516041
146	0x3c7b7c51	0.015349464
147	0x3d192cc6	0.037396215
148	0xbca51e55	-0.020156065
149	0xbc8ad1ba	-0.016945709
150	0x3d54c926	0.051949643
151	0x3c468bb2	0.012118267
152	0xbad35e62	-0.0016126151
153	0x3c64428d	0.013931883
154	0x3cbe455f	0.023226438
155	0x3c90032d	0.01757964
156	0x3d0cd160	0.034379363
157	0x3b36c485	0.002788813
158	0x3c168758	0.009187542
159	0xbd8be584	-0.06830886
160	0x3d1f9264	0.03895797
161	0xbc1f7b4c	-0.009733986
162	0x3b861bca	0.004092668
163	0xbbe52b20	-0.0069936663
164	0xbd3376b7	-0.043814387
165	0xbd2eff66	-0.042724036
166	0x3c6f37e4	0.014600728
167	0xbd5bd3ab	-0.05366866
168	0xbd114b29	-0.03547207
169	0x3cb1f93c	0.02172529
170	0x3bfc281e	0.007695212
171	0x3d5a00be	0.053223364
172	0x3c6cdb54	0.014456589
173	0xbd42e4d2	-0.0475815
174	0xbccfdd11	-0.025373967
175	0x3cffee8e	0.031241681
176	0xbb5c10ad	-0.0033579275
177	0x3d623b6e	0.055232458
178	0x3d565ccb	0.052334588
179	0xbcf89ae2	-0.030347291
180	0xbd10ea23	-0.03537954
181	0xbd3b92f5	-0.045794446
182	0x3cf188bb	0.029484143
183	0x3d156a92	0.036478586
184	0xbd1fc34d	-0.039004613
185	0x3b5f9072	0.0034113196
186	0x3cc678ac	0.024227463
187	0x3d680993	0.056649756
188	0x3bb5cfe0	0.0055484623
189	0xbd124fea	-0.035720743
190	0x3d653d0d	0.055966426
191	0xbce4fa4d	-0.027951384
192	0xbcd47d37	-0.025938613
193	0x3ca913b3	0.020639276
194	0xbceb351f	-0.028711854
195	0xbd86a17a	-0.06573768
196	0x3d741ac6	0.059595846
197	0xbbcf0c58	-0.00631861
198	0xbacbba50	-0.0015543196
199	0xbd2537a1	-0.040336255
200	0x3d4f6970	0.050637662
201	0xbb15115d	-0.0022745945
202	0x3caa1443	0.020761615
203	0x3d335b92	0.0437885
204	0x3d0000e7	0.03125086
205	0x3c5ff5a8	0.013669409
206	0xbccb5222	-0.024819437
207	0xbc428b5f	-0.011874049
208	0x3cda2fb8	0.026634082
209	0xbd764d6e	-0.060132436
210	0x3b322b00	0.0027186275
211	0xbbe16167	-0.0068780663
212	0x3cdf6776	0.027271014
213	0xbd875687	-0.06608301
214	0x3cd0b05e	0.025474723
215	0xbd0dc23a	-0.034609057
216	0xbc8aa699	-0.016925143
217	0xbb8a49f3	-0.004220241
218	0x3ccacac2	0.024754886
219	0xbd1704bf	-0.03686976
220	0x3d061a19	0.032739732
221	0xbd13a66e	-0.03604739
222	0x3d500e81	0.050795082
223	0xbd61f242	-0.055162676
224	0xbc509c2c	-0.012732547
225	0xbd10dde9	-0.03536788
226	0xbc9501ea	-0.01818939
227	0xbd414448	-0.04718426
228	0x3c05a9c0	0.008158147
229	0xbbe2f9fc	-0.006926773
230	0x3caf4738	0.021396264
231	0x3d6a8dbc	0.057264075
232	0x3d233699	0.03984699
233	0x3c205758	0.009786449
234	0xbd042edb	-0.032271247
235	0xbb9e9ad0	-0.0048402324
236	0x3d2799ef	0.040918287
237	0xbd501bcb	-0.050807755
238	0xbd2e40a2	-0.042542107
239	0xbb2fd960	-0.0026832446
240	0xbd3cfd32	-0.046139903
241	0xbbd7fcea	-0.006591429
242	0xbcc2eee9	-0.023795562
243	0xbcd17651	-0.025569113
244	0xbd2ccb55	-0.0421861
245	0xbd448f39	-0.04798815
246	0xbcee680a	-0.029102344
247	0x3ad8c540	0.0016538277
248	0x3d4e25e4	0.050329104
249	0xbd86f6ea	-0.06590064
250	0xbd227876	-0.03966566
251	0xbcae6f39	-0.02129327
252	0x3cdbbf5d	0.026824648
253	0x3c842200	0.016129494
254	0xbd28e0e8	-0.041230112
255	0x3ac2387a	0.0014817857

fc2.bias f4 [256]
0	0xbd8642f2	-0.065557376
1	0xbce32c2f	-0.02773103
2	0x3b140685	0.0022586894
3	0x3d962a26	0.07332258
4	0x3d53e745	0.051734228
5	0xbc984eb4	-0.018592216
6	0x3e95c7b5	0.29253927
7	0xbd6e06e7	-0.05811205
8	0x3ae027f8	0.0017101755
9	0x3d273d1e	0.04082977
10	0x3caea8cd	0.021320725
11	0xbc2d6254	-0.010582525
12	0x3eb20028	0.34765744
13	0x3db6bf1b	0.08923169
14	0x3d03be44	0.032163873
15	0x3d68d17f	0.056840416
16	0x3e0c7d05	0.13719566
17	0x3d0e1843	0.034691107
18	0x3e1fd722	0.1560941
19	0xbc1e10d0	-0.009647563
20	0x3dcb4f86	0.09927277
21	0x3ca67392	0.02031878
22	0x3d81da94	0.063405186
23	0x3d8b8677	0.068127565
24	0x3e394b23	0.18095069
25	0x3c9db3ca	0.01925077
26	0x3b335c08	0.0027368087
27	0x3de7a261	0.11310268
28	0xbc28fbad	-0.01031391
29	0x3e590f0c	0.21197146
30	0xbd173465	-0.0369152
31	0x3ef22ed9	0.47301367
32	0x3de6d50a	0.11271103
33	0x3d6c0527	0.0576221
34	0x3cf87277	0.030328019
35	0x3d1f7f5c	0.03893982
36	0x3bd33a30	0.0064461455
37	0xbcbbce83	-0.02292562
38	0xbd81cdec	-0.063381046
39	0x3cfa0cd3	0.030523693
40	0x3d83c508	0.06434065
41	0xbd810e3a	-0.063015416
42	0x3f046872	0.5172187
43	0x3c8ea7c3	0.01741398
44	0x3eac1cca	0.33615714
45	0x3da91d54	0.08257547
46	0xbc87a846	-0.016559731
47	0x3c483911	0.012220637
48	0xbc4815d5	-0.012212236
49	0x3defb75a	0.117048934
50	0xbd80eaca	-0.062947825
51	0x3da67f3e	0.08129738
52	0x3e11b8f0	0.14230704
53	0x3de05eb6	0.10955565
54	0xbd94f668	-0.07273561
55	0xbca03128	-0.01955469
56	0x3d6706bf	0.056402918
57	0x3d3760f0	0.04477018
58	0xbd02a3de	-0.031894557
59	0x3d30020a	0.042970695
60	0x3d9c6675	0.0763673
61	0x3d9706ef	0.07374369
62	0x3c1933aa	0.009350697
63	0x3dd06b39	0.10176701
64	0x3cacd955	0.021099726
65	0x3dbdb375	0.09262744
66	0x3ef5e33b	0.48024926
67	0xbd46b08e	-0.04850822
68	0x3db5edb5	0.0888323
69	0x3d95fd65	0.07323722
70	0xbd041e97	-0.032255735
71	0x3c48baca	0.012251565
72	0x3d451c63	0.048122775
73	0x3de2bf03	0.11071589
74	0x3d44a522	0.048009045
75	0x3d0c0392	0.034183092
76	0xbb90da24	-0.0044205356
77	0x3de1fa5c	0.110340804
78	0xbbda1f0d	-0.0066565336
79	0x3cb6170e	0.02222779
80	0x3c59bf58	0.013290249
81	0xbd4df29a	-0.05028019
82	0x3d5373d7	0.051624145
83	0xbd470c5d	-0.048595775
84	0xbb499447	-0.0030758546
85	0x3cac1fb5	0.021011213
86	0x3de7d7e7	0.11320477
87	0x3e6e1208	0.23249066
88	0xbd043f8c	-0.032287166
89	0xbb87eba7	-0.004147965
90	0x3dbce677	0.09223645
91	0x3d10e7a4	0.03537716
92	0x3e55640d	0.20838948
93	0x3cf6cf7a	0.03012823
94	0xbda236fd	-0.079206444
95	0xbc86cd0f	-0.016455201
96	0x3e747253	0.23871736
97	0x3cb670d0	0.02227059
98	0x3c7e5139	0.015522295
99	0x3c9bcd66	0.01901884
100	0x3d8903ad	0.06690154
101	0xbcf5f347	-0.03002323
102	0x3c5b0fb2	0.013370441
103	0x3e11551e	0.14192626
104	0x3c50824e	0.01272638
105	0x3d63c155	0.055604298
106	0x3cc840c0	0.024444938
107	0x3e04ac81	0.1295643
108	0x3daf345e	0.0855491
109	0x3dc8036c	0.09766278
110	0x3ccd30c1	0.025047662
111	0x3b80fd38	0.003936436
112	0xbc3353e0	-0.01094529
113	0x3d9bbd31	0.07604445
114	0xbc582b78	-0.0131939575
115	0x3c703be0	0.014662713
116	0xbbda028d	-0.006653136
117	0xbd0f6a53	-0.035013508
118	0xb9b5725d	-0.00034608218
119	0x3dc14495	0.09436909
120	0x3c56e66f	0.013116463
121	0x3e15c3c1	0.14625455
122	0x3da84e24	0.08218029
123	0x3e3e04f3	0.18556575
124	0xbd34623d	-0.044039
125	0x3d81512f	0.06314313
126	0x3ce69781	0.028148415
127	0xbdf9d10b	-0.12198075
128	0x3d99e859	0.0751502
129	0xbac69d72	-0.0015153124
130	0xbad87ff6	-0.0016517628
131	0x3dcf75d0	0.10129893
132	0xbd010b7e	-0.0315051
133	0x3cb0049c	0.021486573
134	0x3da39dc5	0.079890765
135	0x3dd3c2b1	0.10339869
136	0x3e2350b8	0.1594876
137	0xbbc9ec99	-0.006162238
138	0x3d711b45	0.058863897
139	0x3c94e5ac	0.018175922
140	0x3e24003f	0.16015719
141	0x3d93203d	0.07183883
142	0x3e64f9bd	0.22360893
143	0x3b1c9020	0.0023889616
144	0x3dc93479	0.098244615
145	0x3cde11e8	0.027108148
146	0x3cdc9ec5	0.026931176
147	0x3c58d1fe	0.01323366
148	0xbd80c056	-0.06286685
149	0xbd19cedf	-0.037550803
150	0x3c072518	0.00824859
151	0x3dca96db	0.09892055
152	0x3d585eb7	0.052824702
153	0xbd0b8f53	-0.03407223
154	0x3d63add6	0.055585705
155	0x3cbae364	0.022813506
156	0x3d2d3ff7	0.04229733
157	0xbd4d9b07	-0.050196674
158	0x3dc0a183	0.09405806
159	0x3ea9b0c0	0.33142662
160	0xbd5dc467	-0.054142382
161	0x3ca15f68	0.019698814
162	0xbcde95df	-0.027171073
163	0x3e4d6c37	0.20060812
164	0x3be42bd3	0.006963232
165	0x3dcae1d9	0.09906358
166	0x3dcf54f1	0.10123623
167	0x3d4e1c68	0.05032006
168	0xbcf720c7	-0.030166997
169	0xbd57ceb2	-0.052687354
170	0x3e03112a	0.12799516
171	0xbc9ba2fa	-0.018998612
172	0x3da3a8d4	0.07991186
173	0x3d9fcf0c	0.07803163
174	0xbcc7a5bc	-0.02437102
175	0x3abfd4dc	0.0014635581
176	0x3caf972a	0.021434385
177	0xbd3b38cb	-0.04570846
178	0x3cee792e	0.029110517
179	0xbd99747f	-0.07492923
180	0xbd0ced71	-0.03440613
181	0x3b474b9b	0.0030410055
182	0x3d06f515	0.032948572
183	0xbb4109ee	-0.0029455381
184	0xbc98c333	-0.018647766
185	0x3b1e5856	0.002416154
186	0x3d83df62	0.06439091
187	0xbd1ae78c	-0.037818477
188	0xbd12c138	-0.0358288
189	0xbcb2378e	-0.021755006
190	0x3dc3205a	0.09527655
191	0x3daa759d	0.08323214
192	0x3e1be8f1	0.15225579
193	0x3d8716a0	0.06596112
194	0x3d8145bf	0.06312131
195	0xbca77903	-0.020443445
196	0x3e645d3d	0.22301193
197	0x3d4b7ff9	0.04968259
198	0x3e018713	0.12649183
199	0x3e43c693	0.19118719
200	0x3d4ff644	0.050771967
201	0xbc8a11f3	-0.016854262
202	0xbd72a884	-0.05924274
203	0x3cf08322	0.029359404
204	0x3cd0c22b	0.025483212
205	0x3dcd5093	0.10025134
206	0xbd2c4e3f	-0.04206681
207	0xbc038bbe	-0.008028923
208	0x3d1be0df	0.03805625
209	0x3b04e7a0	0.002027966
210	0x3d9552ac	0.07291159
211	0x3d827e0a	0.06371696
212	0x3d4115f6	0.047140084
213	0x3cf3062e	0.029666033
214	0xb9b4494f	-0.00034386895
215	0x3d8a72a6	0.06760149
216	0x3d774f59	0.060378406
217	0x3d9afc99	0.075677104
218	0x3cb8d06d	0.022560323
219	0x3e09b71e	0.1344876
220	0xbd128ca8	-0.03577867
221	0x3dacbff2	0.08435048
222	0x3b987429	0.0046525192
223	0x3e4a03c9	0.19728006
224	0x3ec12b56	0.37728375
225	0x3c201276	0.009770026
226	0xbb6ae094	-0.0035839425
227	0x3d37a682	0.04483653
228	0x3cbb0713	0.022830522
229	0x3e3f3f5e	0.18676516
230	0x3e17913a	0.14801493
231	0x3f1487da	0.58019793
232	0xbbc0e3e4	-0.0058865417
233	0x3df8f4d0	0.12156069
234	0x3e6c06c5	0.23049457
235	0x3e443bc4	0.19163424
236	0x3d5212d5	0.05128749
237	0xbcbf62e6	-0.023362588
238	0x3d4b99f6	0.049707375
239	0x3e29bae8	0.16575205
240	0x3c3f0a80	0.011660218
241	0x3c10119e	0.008793263
242	0x3e59b7fb	0.21261589
243	0xbd6b7f13	-0.057494234
244	0x3de9cb40	0.1141572
245	0xbca480b4	-0.020080902
246	0x3e404c9d	0.18779226
247	0x3c255b62	0.010092588
248	0xbc4300ff	-0.011902093
249	0xbd6717ae	-0.056419067
250	0xbd928d76	-0.07155888
251	0x3da3386e	0.079697475
252	0x3e5a0e7b	0.21294586
253	0x3d5bd361	0.053668384
254	0x3c0d5ab8	0.008627586
255	0x3e86fef0	0.26366377

fc3.weight f4 [2, 256]
0	0x3bed31ee	0.007238618
1	0x3da05ef3	0.0783061
2	0xbe2e68e5	-0.17032202
3	0xbe355908	-0.17709744
4	0xbe270353	-0.16309862
5	0xbe930e70	-0.28721952
6	0x3d5db479	0.05412719
7	0x3cde0c8c	0.027105592
8	0xbe9b1222	-0.30287272
9	0x3de01f81	0.10943509
10	0x3d5b8d86	0.053601764
11	0x3bb3afc2	0.0054835984
12	0x3da60b27	0.08107596
13	0xbe2451d1	-0.16046835
14	0xbe221da9	-0.15831627
15	0x3daa8291	0.08325685
16	0x3e4acf43	0.19805627
17	0xbe657c42	-0.22410682
18	0x3dd36fe2	0.10324074
19	0xbe5beb7c	-0.21476549
20	0x3d4fe10a	0.050751723
21	0xbe4c5cd7	-0.1995729
22	0xbe52ab89	-0.20573248
23	0xbe491a2c	-0.1963889
24	0x3e0d06b4	0.13772088
25	0xbe42c5e8	-0.19020808
26	0x3d00e927	0.03147235
27	0x3db5670e	0.08857547
28	0xbe431290	-0.1905005
29	0x3db49edb	0.08819362
30	0x3ed15a7b	0.40889344
31	0x3d858794	0.0652
32	0xbe80b808	-0.25140405
33	0x3e2c8e7b	0.16851227
34	0xbe403083	-0.18768506
35	0x3e21f298	0.15815198
36	0x3cf8150c	0.030283473
37	0xbd5977ce	-0.05309277
38	0x3aade152	0.0013266003
39	0x3db91e4f	0.09038984
40	0xbe385deb	-0.18004577
41	0x3d3b68f5	0.04575439
42	0x3dc7ee09	0.097621985
43	0xbe3348fc	-0.1750831
44	0x3dc521c7	0.09625583
45	0xbe1e9fda	-0.15490666
46	0x3e18e633	0.14931564
47	0x3d3a2334	0.04544373
48	0xbb75cad8	-0.0037504937
49	0x3ddbafae	0.107268676
50	0xbe7a41f0	-0.24439216
51	0x3e173700	0.14767075
52	0x3df6efaa	0.12057431
53	0xbe669f79	-0.22521771
54	0x3ea89c6a	0.32931834
55	0xbe3d0176	-0.18457589
56	0xbe3ecf55	-0.18633778
57	0xbe30a233	-0.17249374
58	0xbd649ae1	-0.055811767
59	0xbe3d80d9	-0.18506183
60	0x3e05570a	0.13021484
61	0xbe34b439	-0.17646874
62	0x3e0d0df4	0.13774854
63	0xbe7db720	-0.24776888
64	0xbe4747ea	-0.19461027
65	0xbe4d1344	-0.2002688
66	0x3d3b5ede	0.04574477
67	0x3ceb3ab3	0.028714513
68	0x3dbd41cb	0.09241065
69	0x3dee00a8	0.11621219
70	0x3d35c653	0.04437859
71	0xbd5bcef7	-0.053664174
72	0xbe2f700d	-0.17132588
73	0x3e0293ba	0.12751666
74	0xbe5195d0	-0.20467305
75	0x3d8994b3	0.06717815
76	0xbe2871d2	-0.16449669
77	0x3ddfd5b3	0.10929432
78	0xbe424856	-0.18972906
79	0xbe319acd	-0.17344208
80	0x3da0318b	0.078219496
81	0xbd2f2d90	-0.04276806
82	0x3e49536a	0.19660726
83	0xbd63be72	-0.055601545
84	0x3e8fea06	0.28108233
85	0xbea0fcd1	-0.31442884
86	0x3d8bcfd2	0.06826748
87	0x3d77768b	0.060415786
88	0x3e06197a	0.13095656
89	0xbe4ef566	-0.202108
90	0x3d9d915b	0.0769374
91	0xbe3fb2c9	-0.18720545
92	0x3dcfd989	0.101489134
93	0x3cec6a6e	0.028859343
94	0x3e6846ed	0.22683306
95	0xbe51d50e	-0.2049143
96	0x3dc16176	0.09442417
97	0xbe579aaa	-0.21055093
98	0xbe55007f	-0.2080097
99	0xbe5884a4	-0.21144348
100	0xbe7f81d5	-0.2495187
101	0x3d4a031b	0.049319368
102	0x3d2af2bb	0.041735392
103	0x3d6c063c	0.057623133
104	0x3ce92c00	0.028463364
105	0xbe4fece9	-0.20305218
106	0xbe437df7	-0.1909102
107	0x3da4ad58	0.08040875
108	0xbe6ed11a	-0.23321953
109	0xbe192bf9	-0.1495818
110	0xbe3332d6	-0.17499861
111	0x3bd863e2	0.006603704
112	0xbec94086	-0.3930704
113	0x3e1de97d	0.154211
114	0xbc8d1387	-0.017221225
115	0xbcdf5348	-0.027261391
116	0x3df872a0	0.12131238
117	0x3cc53b8c	0.024076246
118	0xbe4c7428	-0.19966185
119	0xbe1afbc1	-0.15135099
120	0xbe2fe865	-0.17178495
121	0x3dc9b6ec	0.09849343
122	0xbe5142ee	-0.20435688
123	0x3d67d4ee	0.05659955
124	0xbe49c888	-0.19705403
125	0xbdd2e7c7	-0.10298114
126	0xbe42945a	-0.19001904
127	0x3e470c60	0.19438314
128	0xbde5b3cd	-0.11215935
129	0xbe689280	-0.22712135
130	0x3dad3aa2	0.08458449
131	0x3db4ea22	0.0883372
132	0xbb4412d1	-0.0029918442
133	0xbe05d326	-0.13068828
134	0xbe4437ef	-0.19161962
135	0x3e1da751	0.15395857
136	0x3db2f62e	0.08738361
137	0xbe47a9ae	-0.19498321
138	0xbe4f68a2	-0.20254758
139	0xbcce6d5c	-0.025198631
140	0x3dcb9f61	0.099425085
141	0xbd5920e5	-0.053009886
142	0x3d8beacb	0.068318926
143	0xbe84b194	-0.2591673
144	0xbe3e2fcb	-0.18572919
145	0x3cf50f27	0.029914452
146	0x3cbf0595	0.023318091
147	0xbe423973	-0.18967228
148	0x3e59ce0a	0.21270004
149	0x3c6674a7	0.014065898
150	0xbd052d06	-0.03251364
151	0x3d97942e	0.0740131
152	0x3dc5320f	0.096286885
153	0x3d816265	0.063175954
154	0xbc7b7768	-0.015348293
155	0x3e08cd24	0.13359505
156	0xbe491320	-0.19636202
157	0xbd0f05b1	-0.034917537
158	0xbe26f089	-0.16302694
159	0x3d831da9	0.064021416
160	0xbd1a839d	-0.037723172
161	0x3da6f737	0.08152621
162	0xbeab9f77	-0.335201
163	0x3d3d3ef3	0.04620261
164	0xbe64cc6a	-0.22343603
165	0xbe5c0f97	-0.21490322
166	0x3e34a5b1	0.17641331
167	0x3d9ca896	0.07649343
168	0x3e82389f	0.25433823
169	0x3d5bb44f	0.053638753
170	0x3dda3d41	0.106562145
171	0x3dabe993	0.0839416
172	0xbe122614	-0.14272338
173	0xbdcd3a9e	-0.10020946
174	0x3e06032f	0.13087152
175	0x3e4deef5	0.20110686
176	0xbe29031d	-0.16505094
177	0x3c985f7b	0.018600216
178	0xbf0030db	-0.5007455
179	0xbef72b79	-0.48275355
180	0xbe1b63f6	-0.15174851
181	0x3d99f36a	0.07517131
182	0x3df8dd19	0.12151546
183	0x3c807be5	0.015684078
184	0x3cebbfd5	0.028777996
185	0x3e5e9394	0.21735984
186	0x3e0e3dd0	0.13890767
187	0xbbef1c6e	-0.0072970903
188	0xbe530e84	-0.20611006
189	0x3c222810	0.009897247
190	0x3dacd795	0.084395565
191	0xbe5d6916	-0.21622118
192	0x3e10a766	0.14126357
193	0xbe5af213	-0.21381406
194	0x3e3dc09b	0.18530504
195	0x3d0be6ce	0.03415566
196	0x3dc9f6ca	0.098615244
197	0x3bb95514	0.005655894
198	0x3dd93ec1	0.106076725
199	0x3d70f3e9	0.05882636
200	0x3cba67d7	0.022754593
201	0x3e66c356	0.22535452
202	0x3c90ef10	0.017692119
203	0xbe475f25	-0.19469889
204	0xbc2e95e9	-0.010655859
205	0x3da0abac	0.07845244
206	0xbce99797	-0.028514666
207	0x3dc019cd	0.09379921
208	0xbe433e7c	-0.19066805
209	0x3c7f4430	0.015580222
210	0xbe4752bc	-0.19465154
211	0xbe5f10ca	-0.21783748
212	0x3dfb0306	0.12256436
213	0xbe2ced33	-0.1688736
214	0xbe2c1fe1	-0.16809036
215	0xbe4e03f2	-0.20118693
216	0x3e0c0b09	0.13676085
217	0x3e19bd80	0.15013695
218	0xbd29592c	-0.041344807
219	0x3dbdce2f	0.09267842
220	0xbd3bbadb	-0.045832496
221	0xbe5b3960	-0.21408606
222	0xbe694464	-0.22779995
223	0x3dd75270	0.105137706
224	0x3db44092	0.08801378
225	0xbe7bc286	-0.24585924
226	0xbca52c06	-0.020162594
227	0xbce8cbb2	-0.028417442
228	0xbd60f1a0	-0.05491793
229	0x3da41f41	0.08013774
230	0x3e5d5983	0.21616177
231	0x3d4d5ee7	0.050139334
232	0xbe4b8635	-0.19875415
233	0x3e2c99e0	0.16855574
234	0x3d9969a6	0.07490854
235	0x3d5dd2ab	0.054155987
236	0xbe3775cc	-0.1791603
237	0x3e0c91f5	0.13727553
238	0x3c3724b1	0.0111781815
239	0x3d9578ce	0.07298432
240	0xbad7d440	-0.0016466454
241	0x3af609d2	0.0018771237
242	0x3dce9197	0.10086363
243	0x3e97649f	0.29568955
244	0x3d95c7cf	0.07313501
245	0x3d125cf2	0.03573317
246	0x3da861b1	0.08221758
247	0x3cd29957	0.025707884
248	0xbe1e0086	-0.15429887
249	0x3d9eddf2	0.077571765
250	0x3e95837c	0.29201877
251	0xbe445a46	-0.19175062
252	0x3d81050e	0.06299792
253	0x3df7bc47	0.12096458
254	0x3e23d77b	0.16000168
255	0x3da6a39f	0.08136677

fc3.bias f4 [2]
0	0x3d85bd2e	0.06530224
1	0xbcf1048f	-0.029421119
